trained_model.pth (torch, 13956 bytes, 5 tensors)

fc1.weight f4 [40, 28]
0	0xbdecb186	-0.115572974
1	0xbd6b2bd5	-0.05741485
2	0xbc295dcf	-0.010337307
3	0x3cf8b6ef	0.030360667
4	0x3e3c7bc2	0.18406585
5	0x3d8bb534	0.06821671
6	0xbc9cd63e	-0.019145127
7	0xbe1e5810	-0.1546328
8	0xbdc8b4f7	-0.09800141
9	0xbe1df8e8	-0.15426981
10	0xbd3557d8	-0.044273227
11	0x3defc0bb	0.11706682
12	0xbe7c30b9	-0.24627961
13	0xbe58b7a0	-0.21163797
14	0x3c61f439	0.013791137
15	0xbde2555f	-0.110514395
16	0x3e04e063	0.12976222
17	0xbda30341	-0.07959605
18	0xbcdb0435	-0.026735405
19	0xbde3c948	-0.11122376
20	0x3ddfd0c2	0.10928489
21	0x3d369ff5	0.04458614
22	0x3d0a0da3	0.03370441
23	0x3b602831	0.0034203643
24	0xbe2c5468	-0.16829073
25	0x3d1ae111	0.037812296
26	0xbe3bad7e	-0.18327901
27	0x3dcb1f06	0.099180266
28	0xbf63e551	-0.89021784
29	0xbd959308	-0.073034346
30	0x3dcad519	0.099039264
31	0x3eab487c	0.3345374
32	0x3f3b51ed	0.73171884
33	0x3f35a657	0.7095694
34	0x3f30b142	0.69020474
35	0x3f5cc921	0.862444
36	0x3eede0a4	0.4646045
37	0x3ed6e5fc	0.4197234
38	0x3f941c30	1.1571102
39	0x3f53673c	0.825794
40	0x3fa3e474	1.2804093
41	0x3f5b91bb	0.8576924
42	0x3e71b27d	0.23603244
43	0x3ec26600	0.37968445
44	0x3f0e6eeb	0.55638
45	0xbe874af6	-0.26424378
46	0xbd897004	-0.067108184
47	0x3c9743d2	0.018464956
48	0xbcf13166	-0.0294425
49	0xbf0ce265	-0.5503295
50	0xbe4d47f6	-0.20046982
51	0x3f278720	0.6544056
52	0x3e93fac7	0.28902265
53	0x3f5f59b5	0.8724626
54	0xbe30182f	-0.17196725
55	0xbe0c3596	-0.13692316
56	0x3e08327f	0.13300513
57	0xbe005fa5	-0.12536485
58	0x3e9b87ec	0.30377138
59	0xbe93ec49	-0.2889121
60	0xbf978d49	-1.1839992
61	0xbf317531	-0.69319445
62	0xbed70e88	-0.42003274
63	0xbfbbeb8d	-1.4681259
64	0x3f05820d	0.52151567
65	0x3f0ca1e3	0.5493452
66	0xbdbe2602	-0.09284593
67	0xbebc0bf9	-0.36727884
68	0x3e1a51a2	0.15070203
69	0xbfb51c16	-1.4149196
70	0x3f93c1b5	1.154349
71	0x3f719442	0.9436685
72	0xbef56f64	-0.47936547
73	0xbdaeed69	-0.08541376
74	0x3c318d68	0.0108369365
75	0xbfa8fe39	-1.3202583
76	0xbf42c4f8	-0.760818
77	0x3f2d0503	0.6758577
78	0x3ea83db7	0.32859585
79	0xbf273ebd	-0.65330106
80	0xbe190643	-0.14943795
81	0xbf15891b	-0.5841233
82	0xbe8cd373	-0.27505073
83	0x3e804506	0.2505266
84	0xbe75b177	-0.23993479
85	0xbeb06b70	-0.34456968
86	0xbf16d5e9	-0.5892015
87	0xbee571d9	-0.4481342
88	0x3f0c0db9	0.5470844
89	0x3c0bccc4	0.008532707
90	0xbd9f4ee9	-0.07778723
91	0x3ece6724	0.40313065
92	0xbdf6baaa	-0.12047322
93	0xbf12ec9c	-0.5739229
94	0xbe24348e	-0.16035673
95	0x3f67a2d3	0.90482825
96	0x3eac9a13	0.337113
97	0x3f41e834	0.7574494
98	0x3f1d1ea8	0.613749
99	0x3eb278db	0.3485783
100	0x3ef1ffae	0.4726538
101	0xbd8275b3	-0.063701056
102	0x3e810b73	0.25204048
103	0xbefe2444	-0.49637043
104	0xbf064c42	-0.5246011
105	0xbd963e10	-0.07336056
106	0xbee01aeb	-0.43770537
107	0x3ff26969	1.8938419
108	0xbd2aeef1	-0.04173178
109	0x3ed04d8f	0.40684173
110	0xbf125411	-0.57159525
111	0xbc224235	-0.00990348
112	0xbe54563a	-0.20736018
113	0xbe2ca2e6	-0.16859016
114	0xbf9dbb52	-1.2322791
115	0x3f9fb318	1.247653
116	0x3f6889dd	0.9083536
117	0xbf248aa2	-0.64274037
118	0x3f9eb575	1.2399126
119	0x3f8af2bd	1.0855328
120	0xbfade986	-1.3586891
121	0xbf330b7c	-0.699394
122	0x3f029da8	0.51021814
123	0xbf41d6b1	-0.7571822
124	0xbf29f276	-0.6638559
125	0x3e25526f	0.16144727
126	0x3e8859ef	0.26631114
127	0x3e3ddbc2	0.18540862
128	0x3e3a3f1e	0.1818814
129	0xbf05f39d	-0.5232485
130	0xbe29dfad	-0.16589232
131	0xbf2dba51	-0.6786242
132	0x3d3cc4c1	0.046086077
133	0x3e7869ec	0.24259156
134	0x3eeb9589	0.46012524
135	0x3db8d5b6	0.09025137
136	0xbe965910	-0.29364824
137	0xbecab7b0	-0.39593267
138	0xbe6f0f75	-0.2334574
139	0x3da248f4	0.07924071
140	0xbe35a78e	-0.17739698
141	0xbf05c99c	-0.52260756
142	0xbf116979	-0.56801564
143	0xbf040e72	-0.5158454
144	0xbe0e9043	-0.13922219
145	0xbe2d68c5	-0.16934498
146	0xbdd0f798	-0.10203475
147	0x3c27e4f1	0.010247455
148	0xbe978c72	-0.2959934
149	0xbefc0fc9	-0.49230793
150	0xbe67e7b5	-0.22646983
151	0x3eaeedc5	0.3416578
152	0x3eb53a98	0.35396266
153	0xbe5cfd18	-0.21580923
154	0xbe2c2ee2	-0.1681476
155	0x3d41fb78	0.04735896
156	0x3e692dbe	0.22771356
157	0x3eeb7718	0.459893
158	0x3eb4ff50	0.35351038
159	0xbe7a0aa3	-0.2441812
160	0xbd754129	-0.059876595
161	0xbdd73869	-0.10508806
162	0x3df20370	0.11817062
163	0x3f1a28e9	0.60218674
164	0xbdbe6ef9	-0.0929851
165	0x3e0e72b9	0.1391095
166	0xbe208824	-0.15676934
167	0x3e28021f	0.16407059
168	0xbf16a273	-0.5884163
169	0xbf072d5a	-0.52803576
170	0xbe4ab49e	-0.19795462
171	0xbf1ec7f7	-0.6202387
172	0x3e675bea	0.22593656
173	0xbe51bf06	-0.20483026
174	0x3ef21771	0.4728351
175	0xbe67e8a1	-0.22647335
176	0x3e5a1733	0.21297912
177	0x3ea3124f	0.31849906
178	0x3f4e8052	0.8066455
179	0x3e5145a2	0.20436719
180	0xbf771273	-0.96512526
181	0x3f94f2ac	1.1636558
182	0x3ec3f24d	0.38270798
183	0x3e34213a	0.175908
184	0x3f5021b3	0.8130142
185	0x3e98696e	0.29767936
186	0x3e980407	0.29690573
187	0x3ea44305	0.32082382
188	0x3cf5a538	0.029986009
189	0x3ea6d1b3	0.32581863
190	0x3e9486a4	0.29008973
191	0x3ea842e4	0.32863533
192	0x3dcff98e	0.10155021
193	0x3ea8864d	0.32914963
194	0xbe9769f4	-0.29573023
195	0x3d6b4e4a	0.05744771
196	0xbe3c40c7	-0.18384086
197	0x3e129c39	0.14317407
198	0xbedf313b	-0.43592247
199	0xbe8452a0	-0.25844288
200	0x3ea6d22a	0.32582217
201	0xbfa6bd27	-1.3026475
202	0xbe9132d4	-0.2835909
203	0xbef1c570	-0.47220945
204	0x3ed4ccea	0.41562587
205	0xbe825377	-0.25454304
206	0x3e5caded	0.21550722
207	0x3ed47502	0.4149552
208	0xbf4d3b0e	-0.80168235
209	0x3fa67a11	1.3006002
210	0x3fb1a6cd	1.3879029
211	0x3e1be21a	0.1522297
212	0xbd89eaa7	-0.067342095
213	0xbf1f4180	-0.6220932
214	0xbe1a4c83	-0.1506825
215	0x3f7329d1	0.9498568
216	0x3dcda520	0.10041261
217	0x3f115cfb	0.567825
218	0x3efde449	0.4958823
219	0x3fb0808a	1.3789227
220	0xbe5ad39f	-0.2136979
221	0x3e873551	0.26407865
222	0xbe1b250a	-0.15150848
223	0x3e97bc83	0.2963601
224	0xbfd9eaac	-1.7024741
225	0x3ef5c309	0.48000363
226	0x3ef28c78	0.47372794
227	0x3eaff560	0.34366894
228	0x3f5a1443	0.85187167
229	0x3e7606c7	0.24026023
230	0xbe9b1db3	-0.30296096
231	0x3e08f196	0.13373408
232	0x3f061acc	0.5238464
233	0x3ef647a6	0.48101538
234	0x3e322d3c	0.17400068
235	0xbf11fd1c	-0.5702684
236	0xbe03c019	-0.12866248
237	0xbe2c9454	-0.16853458
238	0xbe4316a6	-0.19051608
239	0xbeb7530f	-0.35805556
240	0xbe866564	-0.2624923
241	0xbe8dea3e	-0.27717775
242	0xbe8079be	-0.25092882
243	0x3d9aa5d0	0.075511575
244	0x3dae3dd8	0.085078895
245	0xbd00f453	-0.031483006
246	0xbdd831a6	-0.10556345
247	0xbe012c1c	-0.12614483
248	0xbed303b5	-0.41213766
249	0xbf38e222	-0.7222005
250	0xbc14ce64	-0.0090824105
251	0x3e690a72	0.22757891
252	0xbfa7cf05	-1.3110052
253	0x3e29add2	0.16570213
254	0x3f4c5cba	0.7982899
255	0x3f51a797	0.81896347

fc1.bias f4 [40]
0	0xbe13d934	-0.14438325
1	0xbd7883cf	-0.060672577
2	0xbe8505ff	-0.25981137
3	0xbefa8cb4	-0.48935473
4	0xbebeeeca	-0.37291557
5	0xbe4a1304	-0.19733816
6	0xbea0af25	-0.31383625
7	0x3cfcaecc	0.030845068
8	0xbef299da	-0.47383004
9	0xbeec82af	-0.46193454
10	0xbe04573c	-0.12923902
11	0xbe0161e0	-0.12634993
12	0x3ee4d3b2	0.4469276
13	0x3e8cec9c	0.2752427
14	0xbed42a1b	-0.41438374
15	0xbe9e9883	-0.30975732
16	0xbe63c7a6	-0.22244129
17	0x3efc0220	0.4922037
18	0xbe5b0c45	-0.21391399
19	0xbcbfe55e	-0.0234248
20	0xbe8e0dfd	-0.27745047
21	0xbeae19af	-0.3400397
22	0xbd84befc	-0.0648174
23	0xbed8ab92	-0.42318398
24	0xbf1e69cc	-0.61880183
25	0x3f002999	0.50063473
26	0xbe58e5a0	-0.21181345
27	0xbeaeec05	-0.34164444
28	0xbe05899d	-0.13040777
29	0xbf159dc0	-0.5844383
30	0xbe84cbfc	-0.25936878
31	0xbca44d91	-0.020056518
32	0xbe546943	-0.20743279
33	0xbdae6680	-0.08515644
34	0xbe993a99	-0.2992752
35	0xbea08de6	-0.3135826
36	0xbd8b76e4	-0.06809786
37	0xbe8782c1	-0.26466945
38	0x3ebc63f8	0.3679502
39	0xbeb65043	-0.3560811

fc2.weight f4 [40, 40]
0	0xbe0fbdcb	-0.14037244
1	0xbf89fde2	-1.0780604
2	0x3f03076d	0.51183206
3	0xbe679f1d	-0.2261929
4	0x3ecbdfe1	0.39819244
5	0xbd590c66	-0.05299034
6	0xbe18088b	-0.14847009
7	0x3f41d7fa	0.7572018
8	0xbf028a6a	-0.50992453
9	0x3e949e81	0.2902718
10	0xbf8e3405	-1.1109625
11	0x3ebf15e1	0.3732138
12	0x3e045c50	0.1292584
13	0xbdf6c6f4	-0.12049666
14	0x3e9d546b	0.30728468
15	0xbe613ca3	-0.21995787
16	0x3ea357ce	0.31902927
17	0x3df309a9	0.11867077
18	0xbe6de3db	-0.23231451
19	0x3ebd9376	0.37026566
20	0xbe6ee7c6	-0.23330602
21	0xbf45cc19	-0.77264553
22	0xbf04fad5	-0.5194524
23	0x3ecd4138	0.4008882
24	0x3d6d34b7	0.0579116
25	0xbe0dd578	-0.13850963
26	0x3bb31880	0.005465567
27	0xbe0871d4	-0.13324672
28	0xbf08b05e	-0.53394115
29	0x3d3da85f	0.04630315
30	0xbdee52e0	-0.11636901
31	0x3d89a743	0.06721356
32	0xbe133f0a	-0.14379516
33	0xbed2daca	-0.41182548
34	0xbd6f1bbd	-0.058376063
35	0xbe066841	-0.13125707
36	0x3d578f05	0.05262663
37	0x3daae7d0	0.08344996
38	0xbf9ebb3b	-1.2400888
39	0xbf250c11	-0.64471537
40	0x3bd1aadd	0.0063985423
41	0xbe1cbb48	-0.15305817
42	0xbea5e745	-0.32403007
43	0x3e9afdb4	0.30271685
44	0xbb8bd0b8	-0.0042668246
45	0x3f0a80f8	0.5410304
46	0xbe3f89a5	-0.18704851
47	0x3f2d54c8	0.6770749
48	0xbf031465	-0.51202995
49	0x3d89417f	0.067019455
50	0xbe130a15	-0.14359315
51	0x3f2a45ba	0.66512644
52	0xbefbd9d6	-0.49189633
53	0xbf384cc0	-0.7199211
54	0xbc35c7a2	-0.011094959
55	0x3fab0b4f	1.3362826
56	0xbed0dfed	-0.40795842
57	0xbf7fba29	-0.9989343
58	0x3f8ff9b0	1.1248074
59	0x3f5621a7	0.836451
60	0xbce768fa	-0.028248299
61	0xbe4c6106	-0.19958887
62	0x3f17cdcb	0.5929839
63	0x3ef5ef33	0.48034057
64	0x3eae2008	0.34008813
65	0xbf26c27b	-0.65140504
66	0x3e0b843f	0.13624667
67	0xbc936abb	-0.017995229
68	0x3ef1b244	0.47206318
69	0xbe974c5a	-0.2955044
70	0x3f9811a3	1.1880382
71	0xbdcfe26c	-0.101506084
72	0x3f88c073	1.0683731
73	0xbef95cf0	-0.48703718
74	0xbeaee953	-0.34162387
75	0x3f0d9063	0.5529844
76	0xbfa6121d	-1.2974278
77	0x3ca10019	0.019653367
78	0xbf7b5b40	-0.9818611
79	0xbe74d2fe	-0.23908612
80	0xbbe235fc	-0.006903408
81	0x3ed75902	0.42060095
82	0x3ee38d2f	0.44443652
83	0x3eabe449	0.33572605
84	0x3de5ec41	0.112267025
85	0xbe2bd962	-0.16782144
86	0x3eb01ada	0.34395486
87	0xbdccebd7	-0.100059204
88	0xbfb7884a	-1.4338467
89	0x3ecc6209	0.39918545
90	0xbfe228c2	-1.7668688
91	0xbfa51496	-1.2896907
92	0xbe7e0fd2	-0.24810722
93	0x3ec75795	0.38934007
94	0xbfd42229	-1.6572925
95	0xbfa758f4	-1.3074021
96	0xbf3dbddb	-0.7411782
97	0xbdda729d	-0.10666392
98	0x3f11eef1	0.5700522
99	0x3f1055de	0.5638102
100	0xbee8042e	-0.4531569
101	0x3ef44204	0.47706616
102	0x3efb0fbd	0.49035445
103	0x3efaf012	0.49011284
104	0xbf21c927	-0.6319756
105	0xbf841ed8	-1.0321913
106	0xbda9b92e	-0.08287273
107	0x3d35aa14	0.044351652
108	0xbf4c5024	-0.79809785
109	0x3ebafbe4	0.36520302
110	0xbf8ebf24	-1.1152081
111	0x3e96d728	0.29461026
112	0x3f1288d7	0.5724005
113	0xbe9477ec	-0.28997743
114	0xbf49604b	-0.78662556
115	0xbedb9cde	-0.42893118
116	0x3f0cbb13	0.5497295
117	0xbecd5067	-0.40100405
118	0xbe04876c	-0.12942284
119	0xbed25800	-0.41082764
120	0x3d758be8	0.059947878
121	0x3d294e03	0.041334163
122	0x3e5a20b6	0.2130154
123	0xbe5d07c2	-0.2158499
124	0x3ee5c42c	0.4487623
125	0x3df2c552	0.11854042
126	0xbcb2befd	-0.021819586
127	0x3e6a5271	0.22883011
128	0x3e7d8f72	0.24761751
129	0xbf40d7c1	-0.75329214
130	0xbf41ae81	-0.75656897
131	0xbe87110c	-0.26380193
132	0xbe0c1438	-0.13679588
133	0x3c91e15b	0.017807653
134	0xbfb7cde7	-1.4359711
135	0xbfb8eae0	-1.4446678
136	0xbb842af2	-0.00403344
137	0xbf2b1025	-0.6682151
138	0x3d548181	0.051881317
139	0x3ed4236f	0.41433284
140	0x3db3b120	0.08774018
141	0xbf3b7abd	-0.7323416
142	0xbd1cf2bb	-0.038317423
143	0xbe0f446e	-0.13990948
144	0xbd11aa30	-0.035562694
145	0xbf13b318	-0.5769515
146	0xbe561ca1	-0.20909359
147	0xbdd0ebf0	-0.102012515
148	0x3dede3fc	0.1161575
149	0xbfe2de42	-1.7724078
150	0x3f806897	1.0031918
151	0xbdd74385	-0.10510925
152	0x3db6d3b8	0.08927101
153	0xbc06fb29	-0.008238592
154	0xbdfebb30	-0.12438047
155	0x3e8bf19c	0.2733277
156	0xbeed4e14	-0.4634863
157	0x3d799f5a	0.060942985
158	0xbc7fb779	-0.015607708
159	0xbde79375	-0.11307422
160	0xbd6b0558	-0.057378143
161	0x3ebc4e17	0.36778328
162	0x3de6c12e	0.11267315
163	0x3f95dee6	1.1708648
164	0xbd95c874	-0.07313624
165	0x3f21cbe8	0.6320176
166	0xbec7d97e	-0.3903312
167	0xbd9b665b	-0.07587882
168	0xbf34767e	-0.70493305
169	0xbe50b31f	-0.2038083
170	0xbf7b45af	-0.98153204
171	0xbec4b293	-0.3841749
172	0xbe6dbe48	-0.23217118
173	0xbfa7b052	-1.3100684
174	0xbf945ce7	-1.1590852
175	0x3f09a9df	0.5377483
176	0xbf0a5e88	-0.54050493
177	0xbf3c9a97	-0.73673385
178	0x3f907f5f	1.128887
179	0xbfa54a87	-1.2913369
180	0xbf55026a	-0.8320681
181	0x3ea9360c	0.33049047
182	0xbe0d81a8	-0.13818991
183	0xbe516eda	-0.20452443
184	0x3be06b45	0.006848725
185	0xbf52e276	-0.823768
186	0xbdba6855	-0.09101931
187	0x3d9765ab	0.073924385
188	0x3f2e23a3	0.6802313
189	0x3e357475	0.17720206
190	0x3f8258b7	1.0183324
191	0xbe2f97ff	-0.17147826
192	0x3d977a59	0.07396383
193	0xbf1e0a12	-0.61734116
194	0x3e06a10b	0.1314737
195	0x3f70d892	0.9408046
196	0xbdb6218c	-0.08893117
197	0xbd925ed5	-0.07146994
198	0xbe3f1bad	-0.18662901
199	0xbe45082a	-0.19241396
200	0x3e1d8279	0.15381803
201	0xbe00fbd0	-0.12596059
202	0x3db574cb	0.08860167
203	0x3e157623	0.14595847
204	0xbda0f335	-0.07858888
205	0xbd66eae8	-0.056376368
206	0xbc90627e	-0.01762509
207	0x3e0a6ecc	0.13518828
208	0x3d7b9898	0.06142482
209	0xbe249491	-0.16072299
210	0xbc721fa0	-0.014778048
211	0x3d1d8ee5	0.038466353
212	0xbde8b5ec	-0.11362824
213	0xbd90d17f	-0.07071208
214	0xbe0d1eec	-0.13781327
215	0x3dae1308	0.08499724
216	0x3e33dc4e	0.17564508
217	0xbcd4ebab	-0.025991281
218	0xbda98b44	-0.08278516
219	0xbe2de879	-0.16983213
220	0x3e4d93c3	0.20075898
221	0xbe25d065	-0.16192777
222	0xbdb5b6a6	-0.08872728
223	0xbd0b26e5	-0.03397264
224	0x3b11d479	0.0022251888
225	0xbe0c2092	-0.136843
226	0xbda25926	-0.0792716
227	0x3d8e3b0e	0.069448575
228	0xbd24008f	-0.040039595
229	0x3d94f7ca	0.072738245
230	0x3db4ddaf	0.08831345
231	0x3da11e3d	0.078670956
232	0x3d8bbc5c	0.06823036
233	0x3d30a900	0.04312992
234	0x3da76dc8	0.08175236
235	0xbb5d75b9	-0.0033792092
236	0xbe1b005f	-0.1513686
237	0xbe255343	-0.16145043
238	0xbddbd602	-0.10734178
239	0x3b03da14	0.0020118998
240	0xbc6adf04	-0.014335398
241	0xbf59a22d	-0.85013086
242	0x3f71e0eb	0.9448382
243	0xbee45161	-0.44593337
244	0x3fb9fc35	1.4530092
245	0xbe471f8f	-0.19445632
246	0xbdfc2156	-0.12311046
247	0x3e76b950	0.24094129
248	0xbfe49030	-1.7856503
249	0x3f52cd03	0.82344073
250	0x3d419ce3	0.04726876
251	0x3fd12a3e	1.6341016
252	0x3ef2cb59	0.47420767
253	0x3eac5990	0.3366208
254	0xbe19950b	-0.14998262
255	0x3e571a5f	0.21006154

fc2.bias f4 [40]
0	0xbef63ca1	-0.4809313
1	0xbe701f6f	-0.23449491
2	0xbea92e1a	-0.33042985
3	0xbe700bba	-0.23441973
4	0x3df59c58	0.11992711
5	0xbe4b4bb1	-0.19853093
6	0x3e8f0915	0.27936617
7	0xbe4869b0	-0.19571567
8	0xbebd1807	-0.36932394
9	0xbe22778d	-0.15865918
10	0x3e293880	0.1652546
11	0x3e9d8c29	0.30770996
12	0xbe20a6f3	-0.15688686
13	0xbdb6df5e	-0.08929323
14	0x3e951c80	0.29123306
15	0x3c707327	0.014675892
16	0x3e0ff391	0.14057757
17	0xbd9747ca	-0.073867396
18	0xbdceab82	-0.10091306
19	0xbe8d28d8	-0.27570224
20	0xbeb2be2e	-0.3491072
21	0xbebaff66	-0.3652298
22	0xbdd275da	-0.10276385
23	0xbd323c98	-0.043514818
24	0xbdfa0b68	-0.12209207
25	0xbe3e99f7	-0.1861342
26	0xbda76b4c	-0.08174762
27	0xbe4ba04a	-0.19885364
28	0xbe4a3f37	-0.19750677
29	0xbe7d71d0	-0.24750447
30	0xbe26daa4	-0.16294342
31	0xbeec4231	-0.4614425
32	0xbe3ca1d0	-0.18421102
33	0xbe9f9383	-0.3116723
34	0xbe4c069d	-0.19924398
35	0xbe8b0a8c	-0.27156484
36	0xbe0a34ac	-0.13496655
37	0xbe89e033	-0.26928863
38	0xbe2250b1	-0.15851094
39	0xbd4ff18d	-0.05076747

fc3.weight f4 [1, 40]
0	0xbfc8f739	-1.5700446
1	0x3f85b48f	1.0445727
2	0xbf4e6cba	-0.80634654
3	0xbf0ac6dc	-0.54209685
4	0x3f87edc1	1.0619432
5	0x3d9d23fb	0.07672878
6	0xbd9285ff	-0.07154464
7	0x3c3b0750	0.011415318
8	0x3f18163c	0.59408927
9	0x3ba1754c	0.004927313
10	0xbef905f7	-0.48637363
11	0x3e7441d1	0.23853232
12	0x3f89c258	1.0762434
13	0xc00d355f	-2.2063825
14	0x3ee4a93c	0.44660366
15	0xbf112a03	-0.5670473
16	0xbf17e60e	-0.5933541
17	0x3f92aab5	1.1458346
18	0x3d3c66c0	0.045996428
19	0x3f9d2790	1.2277699
20	0xbf90c87f	-1.1311187
21	0xbde7e84a	-0.113236025
22	0xbfb4c833	-1.4123596
23	0x3f27b146	0.6550487
24	0x3d3cc1e7	0.046083357
25	0xbcc2aa5b	-0.023762872
26	0x3eee0db1	0.4649482
27	0xbf480c2d	-0.7814358
28	0xbf15f4cc	-0.58576655
29	0x3f4dc546	0.8037914
30	0x3bb12445	0.005405935
31	0xbfb6599c	-1.4246097
32	0x3f95b775	1.1696612
33	0x3f0f9e27	0.56100696
34	0x3fbd9305	1.4810492
35	0xbf6fa603	-0.9361269
36	0xbeb4cfd4	-0.3531481
37	0x3c5f4176	0.013626447
38	0x3f658a4e	0.8966416
39	0xbe2eb9a6	-0.17063007
